EasyNegativeV2.safetensors (safetensors, 49232 bytes, 1 tensors)

emb_params f4 [16, 768]
000000 7d a6 ff 3a fb c8 51 3b 4e 4f 01 bc a1 5f fa bb
       0.0019504573 0.0032010663 -0.007892443 -0.0076407944
000010 af 38 c9 3c 2d db 52 bc a6 2f f8 bb b0 e6 46 3c
       0.024563162 -0.012869638 -0.0075740395 0.012139961
000020 0e 63 fc 3b 26 cb e7 3b d7 3b 8b bb 10 ca 87 bc
       0.007702238 0.0070737777 -0.004249077 -0.016575843
000030 e4 f8 23 3c eb 0a d1 3c a5 36 e9 3b 48 01 ec ba
       0.010008071 0.025517901 0.00711711 -0.0018005753
000040 d1 65 52 39 a2 e6 ca bc d8 36 b2 bc 07 09 39 bc
       0.0002006509 -0.024768177 -0.021754667 -0.011293656
000050 2b c6 c2 3b 1e 3a 49 bc d0 18 b5 bb 12 cb 80 3c
       0.0059440336 -0.012281923 -0.0055266395 0.015721831
000060 8a c0 94 3a cf a5 45 bb 83 f4 74 bb e4 a1 fd bb
       0.0011348885 -0.0030158644 -0.0037377186 -0.007740246
000070 50 27 9d bc 4f df 44 3b 39 21 3d bc a8 12 03 3b
       -0.019183785 0.003004033 -0.011543565 0.0020000134
000080 c6 58 39 3a a0 4f b2 bc 15 1a 20 bc a6 3a 8d 3c
       0.0007070418 -0.021766484 -0.009771843 0.01723988
000090 8a fa 2f bc ff 70 ce b9 98 e4 0b 3c 43 9b c2 3a
       -0.0107408855 -0.0003937557 0.008538388 0.0014847297
0000a0 50 3d 58 bc 62 18 99 bc c3 b5 ee bb 6f 9f 82 3c
       -0.013198212 -0.018688384 -0.0072848513 0.015945164
0000b0 c3 75 ec bc 85 00 80 3c 8f 8e fb ba 56 f2 ec 3a
       -0.028864747 0.015625248 -0.0019192266 0.0018077593
0000c0 a5 eb d0 3c 10 be 25 3c 76 1c 6a 3c 09 04 85 ba
       0.025502989 0.010116115 0.014289012 -0.0010148297
0000d0 56 23 45 bc 3f 8a 14 3c 16 e9 01 bc 20 7d 41 bc
       -0.0120323505 0.009066164 -0.007929107 -0.011809617
0000e0 25 b0 df 3b 5c 7a 9c bc 5f b6 a3 3a 4a 74 11 3c
       0.006826418 -0.019101314 0.0012490264 0.008877823
0000f0 8f 57 d1 bb 36 fb e1 3c 1a 0f 41 3b 3a 63 50 3b
       -0.0063886116 0.027585607 0.0029458464 0.0031797425
000100 45 ff db 3b eb 1b 59 bc 68 0a ab 3a 22 d6 18 3b
       0.00671378 -0.013251285 0.0013049366 0.0023320992
000110 0e cf 2c 3c 3c 5a c2 3a 1b 50 c2 bb 8e af fd 3a
       0.010547413 0.0014827917 -0.0059299595 0.0019354688
000120 73 dc 0c 3c 2a 76 47 3c 2e 8e 2c 3c fc 28 48 3c
       0.008597481 0.012174169 0.010531945 0.012216803
000130 25 4a a5 3b 1c 98 9c 3b 8d e7 76 3c fc 89 85 bc
       0.005044239 0.004778875 0.015069854 -0.016301148
000140 29 01 cd bb a4 3b c6 3a e4 4a 83 3b 28 7a 01 bc
       -0.006256242 0.0015123975 0.0040067304 -0.0079026595
000150 58 30 29 3c 44 b1 de 3c f7 e3 91 bb 40 e2 1c bb
       0.010326467 0.027184136 -0.0044522244 -0.0023938566
000160 04 ee 79 bc fd fa 9b 38 b6 ca 92 bb 9b 86 f0 bc
       -0.015254501 7.437726e-05 -0.0044797314 -0.02936106
000170 ff 64 c5 bb 4e 08 63 3c ed 84 b4 bc 48 1e 1d 3c
       -0.0060240026 0.01385696 -0.02203604 0.009589739
000180 95 ff 0e 3c c3 fa 0b bd 00 12 ac 3c 6a 56 08 3c
       0.008727928 -0.034174692 0.021004677 0.008321384
000190 14 69 13 bb a0 6f 2e bc 73 50 79 ba e0 6e 9f 3b
       -0.0022493051 -0.010646731 -0.0009510584 0.0048655123
0001a0 ca 78 b2 bc 7e 1c 2b 3c 1c ad c7 3b 94 f2 4b 3b
       -0.021786112 0.010443805 0.0060936343 0.003111993
0001b0 d9 2d ef 3b bc b7 94 bc 8d 60 c6 bb 9f 96 07 39
       0.0072991666 -0.018154018 -0.00605399 0.00012930714
0001c0 3c ef 54 3c 76 61 2f bb a4 8c 56 ba c4 60 2c bc
       0.012996491 -0.0026760972 -0.0008184409 -0.010521118
0001d0 7d 4f 1b bc 92 1a 15 bc ec 60 a1 3a 6d 2d 87 bc
       -0.009479401 -0.009100573 0.001231221 -0.016501153
0001e0 0a 42 90 3c 73 29 a2 bb a2 46 87 bc 43 e6 9a bb
       0.017609615 -0.004948789 -0.016513173 -0.0047271564
0001f0 a2 9e 55 3c 33 2d 5c 3c 17 34 e5 bc 6f c2 4b bc
       0.013038309 0.013438511 -0.02797894 -0.012436493
000200 2e 26 eb bc b3 64 95 bc ef 4e a3 3c e6 04 a6 3c
       -0.028704729 -0.018236494 0.0199351 0.020266008
000210 e8 94 a5 3b 86 48 36 bc 7a 6e dd bb ea 81 ca bc
       0.0050531514 -0.011125689 -0.0067575546 -0.024720151
000220 f1 4c 30 3b a6 42 9a bc 58 ae bb ba d6 fd 36 3c
       0.002690133 -0.018830609 -0.0014318926 0.011168918
000230 dc 8a 63 3c 5e 2e 9b bc 15 77 ad bb 22 90 ca 3c
       0.013888087 -0.018943008 -0.0052937367 0.024726931
000240 20 3b b4 3a 08 01 ff bb 48 b7 84 3a 5d a3 22 bd
       0.0013750531 -0.0077821054 0.0010125423 -0.039706577
000250 d5 ac 89 bc 80 79 4d bc 93 93 62 3c d0 b7 b5 bb
       -0.016806046 -0.012541175 0.01382913 -0.005545594
000260 a4 98 57 3b bd 62 87 bc c8 a9 98 3a 72 7b c9 bc
       0.0032897377 -0.016526574 0.0011647278 -0.024594996
000270 6c 6e ef 3b 36 7e a8 3a 18 3d 9a 3c d8 ce 29 3c
       0.0073068645 0.0012854997 0.01882796 0.010364257
000280 41 82 17 3c ec 1b ce 3c 64 ed c8 bb 7a 89 b8 3c
       0.009247364 0.025159799 -0.006131815 0.022526491
000290 b9 52 08 3c a4 64 e8 3b 58 82 02 3c 64 aa c7 3b
       0.008320504 0.0070920754 0.007965647 0.00609331
0002a0 84 3d 4c 3c 2a ed 72 3b 84 36 c0 39 7d 9f bd bc
       0.012465838 0.003706763 0.0003666171 -0.023147339
0002b0 0d b0 a3 bb 12 f0 8b 3c cb 2f 3c bc a5 5d 19 3c
       -0.004995352 0.017082248 -0.011486004 0.0093607055
0002c0 7f 48 fd bc 0d 76 83 3c a1 cc ad 3b 9a 8e 2a bc
       -0.030918358 0.016047502 0.0053039347 -0.010409975
0002d0 06 55 ce bb 0d c3 be bb 4c 03 ce bb 70 94 22 bc
       -0.0062967567 -0.0058215917 -0.006287014 -0.009923086
0002e0 74 0d 0a bc f3 f0 ac bc 30 3b 33 bc 6d 93 71 3c
       -0.008426059 -0.021110987 -0.010939404 0.014744622
0002f0 17 90 75 3a fe 8d f6 3c cf a6 90 bc f9 91 b2 bb
       0.00093674794 0.030097004 -0.017657666 -0.00544953
000300 5a 9b e6 3a f1 8e df 37 d4 d6 7b ba 22 ec b7 bb
       0.0017593906 2.6650234e-05 -0.0009606902 -0.005612866
000310 2f 7c 14 3c a1 5a f4 3c 3b 20 b1 3b 7e 73 56 3c
       0.009062811 0.029828371 0.0054054535 0.013089059
000320 67 8f 96 3b 7b e6 81 bb 75 f6 69 3b b4 82 12 3a
       0.0045947316 -0.003964243 0.0035699878 0.00055889343
000330 22 1e b4 ba e0 99 86 3c ba 49 32 bc f9 ba c1 bc
       -0.001374189 0.016430795 -0.010881836 -0.023648726
000340 45 74 09 bb 42 1f 89 bc ac 85 27 3c 40 13 97 bc
       -0.0020973843 -0.016738538 0.010224741 -0.018441796
000350 5b 54 8d 3c 1d 5f 00 bc 98 e4 86 3c 0e e9 fd bc
       0.017252138 -0.007835177 0.016466424 -0.030994918
000360 7d 1e f3 bb f2 3d 42 3b 4d b4 d2 3b 53 40 95 bb
       -0.007419406 0.0029638973 0.006430185 -0.004554787
000370 56 90 11 3b fa a2 6e 3c 7c f6 06 bb 0d b9 f9 3b
       0.0022211275 0.014565224 -0.0020593693 0.0076209367
000380 f2 59 36 bb 77 18 82 3c c8 56 9c bb 30 fa 1d 3c
       -0.0027824608 0.015880806 -0.0047710873 0.009642169
000390 ba 51 fb bb 42 9b 9d bc 28 0b 88 37 73 48 95 3c
       -0.0076696547 -0.019239072 1.6217658e-05 0.018223023
0003a0 69 b0 39 3c ff 27 d5 3c 06 21 62 bb ca d9 e9 bb
       0.011333563 0.026020048 -0.0034504547 -0.007136558
0003b0 61 18 78 3c 3c ad 9d bb 29 8b ed bb 0b a4 77 3c
       0.015142531 -0.004811911 -0.007249255 0.0151147945
0003c0 4a b2 40 bb 68 06 96 bb 9b c9 de 3b c6 98 15 ba
       -0.0029403144 -0.0045784004 0.0067989356 -0.0005706664
0003d0 45 78 c7 39 4b 99 f9 bb 73 10 37 3b 16 bc bc 3c
       0.00038045846 -0.007617151 0.0027933388 0.023038905
0003e0 ae d9 93 3c 74 19 80 3c 9f 15 8a bb 36 8e 75 3c
       0.018048134 0.015637137 -0.004214003 0.014987519
0003f0 18 4f 20 bc 52 b9 ec 38 9e e3 69 bc fe 37 22 3c
       -0.009784482 0.000112878755 -0.01427546 0.009901045
